results/collision/trained-420-0.8630-model.pt (torch_old, 62498 bytes, 8 tensors)

weight f4 [50, 6]
0	0x3f08af91	0.53392893
1	0x3e8c602f	0.27417132
2	0xbdc7534a	-0.09732683
3	0x3ea36b58	0.31917834
4	0x3b8a7d04	0.004226329
5	0x3d961199	0.07327575
6	0xbe6a5b81	-0.22886468
7	0x3e478253	0.19483308
8	0x3ea435cc	0.32072294
9	0xbeae4bce	-0.3404221
10	0x3e9d7341	0.30751994
11	0x3d51d60e	0.05122953
12	0x3eeffadc	0.46871078
13	0xbd8a07f5	-0.06739799
14	0x3e1a2277	0.1505221
15	0xbd86d4bf	-0.06583547
16	0x3e1cea12	0.15323666
17	0x3d073c29	0.033016358
18	0xbe432922	-0.1905866
19	0x3dd51e58	0.10406178
20	0xbe409bf6	-0.18809494
21	0xbd441a18	-0.047876447
22	0xbe29cb00	-0.16581345
23	0x3e8aa8ee	0.27082008
24	0xbea4ff23	-0.32225904
25	0xbe40b941	-0.18820669
26	0xbdec1768	-0.11527902
27	0xbe7b5c16	-0.24546847
28	0x3d1dd378	0.03853175
29	0xbece72a2	-0.40321833
30	0x3f0e9026	0.55688703
31	0xbf0c394c	-0.5477493
32	0x3eaa24c9	0.3323119
33	0xbcaad09f	-0.020851431
34	0xbda99d4c	-0.08281955
35	0x3ea6cbe8	0.32577443
36	0x3d668d0b	0.056286853
37	0x3e9d3586	0.30704898
38	0xbb8ea51e	-0.0043531796
39	0xbe1173c5	-0.14204319
40	0xbd5b4b62	-0.053538688
41	0xbdadb0bd	-0.08480976
42	0x3cc7ba9b	0.024380973
43	0x3ee69126	0.45032614
44	0x3e073631	0.13204266
45	0xbe2ad380	-0.16682243
46	0x3e40cd6d	0.18828364
47	0x3cd1ce52	0.025611077
48	0x3e4ded2e	0.20110008
49	0xbe8294ec	-0.25504243
50	0xbed2128c	-0.41029775
51	0xbe27e9da	-0.16397801
52	0xbe9d2a32	-0.30696255
53	0x3ea8503a	0.32873708
54	0x3c16c578	0.009202354
55	0x3d05adc9	0.032636438
56	0xbb1857cf	-0.0023245697
57	0xbe0ce00b	-0.1375734
58	0x3e701638	0.23445976
59	0xbe5252eb	-0.20539443
60	0x3e6af2d7	0.22944199
61	0xbec32a65	-0.38118282
62	0x3e64eb41	0.22355367
63	0xbe044897	-0.12918316
64	0x3d9504fc	0.07276341
65	0xbc0677b8	-0.008207254
66	0x3ed93f96	0.42431325
67	0xbe9553cb	-0.2916549
68	0xbe30e0ed	-0.17273302
69	0xbe95fb52	-0.29293305
70	0x3e839603	0.25700387
71	0x3ec1216c	0.3772081
72	0x3ec921f6	0.39283723
73	0xbeac8078	-0.33691764
74	0xbecf5337	-0.40493175
75	0xbea3883a	-0.3193987
76	0xbe8c9b8a	-0.27462417
77	0x3e295354	0.16535693
78	0x3c25046e	0.010071857
79	0x3e16400b	0.14672868
80	0xbeaa44cc	-0.33255613
81	0xbecfaae9	-0.40560082
82	0x3e181d98	0.14855039
83	0xbd9bc5ce	-0.076060876
84	0x3ef10201	0.4707184
85	0xbe4a45ae	-0.19753143
86	0x3ea6643c	0.32498348
87	0xbe97118a	-0.2950557
88	0xbdfb08f8	-0.1225757
89	0x3e5f46fb	0.2180442
90	0x3e6b1568	0.22957385
91	0xbe2914b4	-0.16511804
92	0x3e9da060	0.3078642
93	0x3e7cd4c5	0.2469054
94	0xbe40c0c3	-0.18823533
95	0xbe12b4aa	-0.1432673
96	0x3efd1ff0	0.4943843
97	0xbe6a3c95	-0.22874673
98	0xbde0a22b	-0.10968431
99	0xbefee3c6	-0.49783152
100	0x3cbf5922	0.023357932
101	0x3e77e642	0.2420893
102	0xbdafb9c7	-0.08580356
103	0xbed438ff	-0.41449735
104	0xbdffc0ca	-0.124879435
105	0xbe9f8e73	-0.31163368
106	0xbe86faca	-0.26363212
107	0xbed60360	-0.4179945
108	0xbec8261b	-0.39091572
109	0xbea05c27	-0.31320307
110	0x3eca433c	0.3950442
111	0x3d430426	0.047611378
112	0x3e4796b8	0.19491088
113	0xbeb7d07f	-0.35901257
114	0xbe857459	-0.2606533
115	0xbe12cdbf	-0.14336298
116	0x3d66e59f	0.056371327
117	0xbebbbf2e	-0.36669296
118	0xbe3bc44d	-0.18336602
119	0xbe72a0af	-0.23694108
120	0x3a944a00	0.0011313558
121	0xbe1b8e6e	-0.15191051
122	0xbce7c030	-0.028289884
123	0xbe8da3ea	-0.2766412
124	0xbe8f78f4	-0.28021967
125	0xbe73e392	-0.2381728
126	0xbdbae800	-0.09126282
127	0xbebb8b9b	-0.36629948
128	0x3ea28013	0.31738338
129	0xbdd7d4d8	-0.105386436
130	0x3ea75fcf	0.32690284
131	0x3e19ed2f	0.15031885
132	0xbed082ff	-0.40724942
133	0x3ec02563	0.37528524
134	0xbe27ba47	-0.16379653
135	0xbde4d00a	-0.11172493
136	0xbe8f6dba	-0.28013402
137	0xbee28243	-0.44240007
138	0x3cf8da9b	0.030377677
139	0xbe1d7e5f	-0.15380238
140	0x3da8aa85	0.08235649
141	0xbed79220	-0.42103672
142	0x3e77dcca	0.24205318
143	0xbe34427c	-0.17603487
144	0xbdddd11d	-0.10830901
145	0x3d0b2ec2	0.03398014
146	0x3e27c2bf	0.16382883
147	0x3e906eb4	0.2820946
148	0x3e9b667e	0.30351633
149	0xbe8a9437	-0.27066204
150	0x3dd26ac8	0.10274273
151	0xbe33d003	-0.17559819
152	0xbd373f00	-0.044737816
153	0xbe9c73a6	-0.30556983
154	0x3ebe63fa	0.3718565
155	0xbe9969a2	-0.29963404
156	0x3e766569	0.24062122
157	0x3e16b63e	0.14717957
158	0x3df710d5	0.12063757
159	0xbe5f102a	-0.2178351
160	0x3eb78754	0.35845435
161	0x3e087d99	0.13329162
162	0x3d571c28	0.052517086
163	0xbeb833e0	-0.35977077
164	0x3e2f7db4	0.17137796
165	0xbd7adcb8	-0.06124565
166	0xbe3f8464	-0.18702847
167	0x3eb38a2a	0.35066348
168	0x3dba67e4	0.09101847
169	0xbe674b8e	-0.22587416
170	0xbe5396e9	-0.20663036
171	0xbc9fb680	-0.019496202
172	0x3e696bbc	0.22795004
173	0xbdd5a660	-0.10432124
174	0xbe6e614f	-0.23279308
175	0xbe193af6	-0.14963898
176	0xbeabf1f9	-0.33583048
177	0x3def005e	0.11669992
178	0x3e93a384	0.2883569
179	0xbeb71210	-0.35755968
180	0x3bf51c04	0.0074801464
181	0x3e859deb	0.26097044
182	0xbc0827d2	-0.008310275
183	0xbe011828	-0.12606871
184	0x3e27fea8	0.16405737
185	0x3ddae884	0.1068888
186	0x3eac8019	0.3369148
187	0xbe471593	-0.19441824
188	0xbc8b1bd9	-0.016981052
189	0xbc2c5c92	-0.010520117
190	0xbc9285b8	-0.017886028
191	0x3db47954	0.08812204
192	0x3ebc333d	0.36757842
193	0x3e942de8	0.28941274
194	0xbda4ff6d	-0.08056531
195	0xbdd1aad0	-0.10237658
196	0xbd88239f	-0.06647419
197	0xbdf0a9ee	-0.117511615
198	0x3dc90190	0.09814751
199	0x3dea4d20	0.11440492
200	0xbebdd8c0	-0.3707943
201	0xbe1a465c	-0.15065902
202	0x3eb00648	0.34379792
203	0x3e22da1c	0.15903515
204	0xbd12681a	-0.03574381
205	0xbe88eff8	-0.26745582
206	0xbe8aa8e1	-0.2708197
207	0xbec5bc92	-0.3862043
208	0xbde5e757	-0.11225765
209	0x3df3f90d	0.11912737
210	0x3e854716	0.26030797
211	0x3e4102c8	0.18848717
212	0xbeb8c3c7	-0.36086866
213	0xbe7b65b8	-0.24550521
214	0xbd83f308	-0.06442839
215	0x3eca32cc	0.3949188
216	0x3de654c9	0.1124664
217	0xbe2782be	-0.16358468
218	0x3e53ae36	0.20671925
219	0xbe096fe8	-0.13421595
220	0xbe55c4e4	-0.20875889
221	0x3e95b569	0.29239967
222	0xbe8179f8	-0.25288367
223	0xbe531ce4	-0.2061649
224	0xbf07ed52	-0.530965
225	0x3e0dfa90	0.13865113
226	0x3e58403b	0.21118252
227	0x3e1b4914	0.15164596
228	0xbe91bf17	-0.28466102
229	0xbece4b14	-0.40291655
230	0xbea9c3a2	-0.33157068
231	0x3e9bde5c	0.30443084
232	0x3e48b4d8	0.19600236
233	0x3eafe4d6	0.34354275
234	0x3e7032a9	0.23456825
235	0x3dc320b3	0.09527721
236	0xbb5a8858	-0.0033345427
237	0xbeaa81b8	-0.33302093
238	0xbea679b9	-0.32514742
239	0xbea5c7c5	-0.32378975
240	0x3e1f2c3c	0.15544218
241	0xbe593c89	-0.21214499
242	0xbdbf839a	-0.09351273
243	0xbe7c5521	-0.24641849
244	0xbd954f1a	-0.07290478
245	0xbe8cd8a6	-0.2750904
246	0xbe9a9d9b	-0.30198368
247	0x3e0a02ed	0.13477679
248	0xbe2d5177	-0.16925608
249	0x3e4d923f	0.2007532
250	0xbd0fe256	-0.03512796
251	0xbe5f920c	-0.21833056
252	0xbd9384f0	-0.0720309
253	0xbe4aa598	-0.19789732
254	0xbdffcba4	-0.12490013
255	0xbec6fd36	-0.3886506

bias f4 [50]
0	0x3b9a3110	0.0047055557
1	0xbe025d0f	-0.12730812
2	0xbe299616	-0.1656116
3	0xbe4829bc	-0.1954717
4	0xbeaa1bd7	-0.33224365
5	0x3e830eb3	0.25597152
6	0xbe4d6f04	-0.2006188
7	0x3dee1f34	0.11627045
8	0xbe176d4b	-0.14787786
9	0xbdca63ef	-0.09882342
10	0x3ecad392	0.3961454
11	0x3de755fa	0.112956956
12	0xbeb523ae	-0.35378784
13	0x3ce208dc	0.027592115
14	0x3ec8c58f	0.39213225
15	0x3ddb6e60	0.10714412
16	0x3e053dc9	0.1301185
17	0x3eb163c2	0.34646422
18	0xbd9bd159	-0.07608289
19	0x3d9e3e52	0.077267304
20	0xbe914746	-0.2837469
21	0xbdde4b4f	-0.10854208
22	0x3eae7583	0.3407403
23	0x3df9787b	0.12181183
24	0xbe9caad8	-0.30599093
25	0xbea79cce	-0.3273682
26	0xbe8d0eeb	-0.27550444
27	0xbece47bf	-0.40289113
28	0xbea14a58	-0.31502032
29	0xbe04d397	-0.1297134
30	0x3e97837b	0.295925
31	0xbbbfed20	-0.005857125
32	0xbeb47766	-0.35247344
33	0xbea7aef0	-0.32750654
34	0x3e3af302	0.18256763
35	0xbe9b7ae4	-0.30367196
36	0xbd18e38b	-0.037326377
37	0x3d8078b8	0.06273025
38	0xbe417a13	-0.18894224
39	0xbd91e98b	-0.07124623
40	0xbd3cc09f	-0.046082135
41	0xbe1088df	-0.14114712
42	0xbe53f681	-0.20699503
43	0xbeba54cc	-0.3639282
44	0xbeb91022	-0.3614512
45	0xbe7ed63d	-0.24886413
46	0x3ee2b09d	0.4427537
47	0xbe49ec28	-0.19718993
48	0xbe8eaa08	-0.278641
49	0x3dc58f81	0.09646512

weight f4 [128, 50]
0	0x3cc79a0c	0.024365447
1	0x3d8df564	0.0693157
2	0x3dc01a46	0.09380011
3	0x3da149ba	0.0787539
4	0xbe0f95ae	-0.14021942
5	0xbaaa9e3b	-0.0013017127
6	0x3d90e6b7	0.07075255
7	0xbce1c39f	-0.0275591
8	0xbda1f675	-0.07908336
9	0x3df5c472	0.120003596
10	0xbd87378d	-0.06602392
11	0xbdb6ec61	-0.089318044
12	0xbe028f23	-0.12749915
13	0xbc09d148	-0.008411713
14	0x3d46d0e4	0.048539057
15	0x3c88646a	0.016649444
16	0x3c685e8a	0.014182696
17	0xbdebc63f	-0.11512422
18	0xbe073dc8	-0.13207161
19	0x3b233500	0.0024903417
20	0x3e040c35	0.12895282
21	0x3da71822	0.081589
22	0xbdc39946	-0.09550719
23	0xbcf53338	-0.02993165
24	0xbdd69841	-0.10478259
25	0xbd8bb98a	-0.06822498
26	0x3c91a11c	0.017777018
27	0x3d9db718	0.07700938
28	0x3defebde	0.1171491
29	0xbe04f4ba	-0.12983981
30	0x3da46eff	0.08028983
31	0xbdea5f3c	-0.11443946
32	0x3d1c78fa	0.03820131
33	0x3df5194e	0.11967717
34	0x3b0225c0	0.0019858927
35	0x3e03c121	0.12866642
36	0xbde145df	-0.10999655
37	0xbd7cda52	-0.061731644
38	0x3da8ed98	0.082484424
39	0xbd281005	-0.041030902
40	0xbccd32e4	-0.02504868
41	0xbd55fc8c	-0.0522428
42	0x3dc7a4f6	0.09748261
43	0x3d8e109e	0.06936763
44	0x3cfd3b1e	0.030911978
45	0xbda86c4f	-0.08223783
46	0xbdfa8067	-0.12231522
47	0x3c7a9d00	0.015296221
48	0x3cf1c04f	0.029510645
49	0xbd96d25d	-0.07364342
50	0xbd22137e	-0.03956937
51	0x3dc39b7e	0.09551142
52	0x3c389350	0.011265591
53	0x3bd11520	0.006380692
54	0xbd0e8e82	-0.034803875
55	0xbe0324b6	-0.12806973
56	0xbe0829f1	-0.1329725
57	0xbd8a72ad	-0.06760154
58	0xbd9339c2	-0.07188751
59	0x3d34789c	0.044060335
60	0xbd28a11e	-0.04116928
61	0xbd629ebc	-0.055327162
62	0x3e0a1247	0.13483535
63	0x3d49c528	0.04926029
64	0x3dce7a84	0.10081962
65	0xbd8c36cb	-0.068463884
66	0xbd6c9bf8	-0.05776593
67	0x3d54e6f8	0.05197808
68	0xbdc0f952	-0.09422554
69	0xbdbd553a	-0.09244771
70	0xbbdfd340	-0.006830603
71	0xbd53df08	-0.05172637
72	0xbdd91fc8	-0.10601765
73	0x3dabcc14	0.08388534
74	0x3de8e912	0.1137258
75	0x3cbbf088	0.022941843
76	0xbcc9b6e0	-0.024623334
77	0xbe06237f	-0.13099478
78	0xbd52fd58	-0.05151114
79	0x3d1378c4	0.036003843
80	0x3d8891e8	0.066684544
81	0xbc92752c	-0.017878138
82	0xbd65034a	-0.05591134
83	0x3da163d2	0.07880367
84	0xbde6a979	-0.11262793
85	0x3db70d4e	0.089380845
86	0xbd60ba3a	-0.0548651
87	0x3b0dda80	0.0021645129
88	0xbce4f154	-0.027947105
89	0x3c8c7550	0.017145783
90	0xbd2f0d52	-0.042737313
91	0x3dd29936	0.10283129
92	0xbb70f240	-0.0036765486
93	0x3de215f6	0.11039345
94	0x3e0b3cbd	0.13597389
95	0xbd8d1b07	-0.06889921
96	0xbdd349d6	-0.103168175
97	0x3de85f1a	0.11346264
98	0x3de2f576	0.11081974
99	0xbddd259e	-0.107981905
100	0x3b0e8510	0.0021746792
101	0xbdf3cf3f	-0.119047634
102	0xbea3989d	-0.31952372
103	0x3cdfc2a0	0.027314484
104	0x3d1a1a8c	0.037622973
105	0x3c9ae5aa	0.01890834
106	0xbe137ca0	-0.1440301
107	0x3dfe36e9	0.12412817
108	0x3c6edaaa	0.014578501
109	0xbdc4efe5	-0.09616069
110	0x3b15017a	0.0022736476
111	0xbdcf8609	-0.10132987
112	0x3d4ada70	0.049524724
113	0xbda1f31a	-0.07907696
114	0x3d7b0dd1	0.061292473
115	0xbd8b1c0d	-0.0679246
116	0xbe729186	-0.23688325
117	0x3d92b019	0.07162494
118	0xbd810ee1	-0.06301666
119	0x3de88b23	0.11354663
120	0x3e01ae15	0.12664063
121	0x3d7f7cf4	0.062375024
122	0x3df80138	0.121096075
123	0xbaaad8b2	-0.0013034551
124	0xbd653041	-0.05595422
125	0x3d90b74c	0.07066211
126	0xbdd8299c	-0.10554811
127	0xbdc37648	-0.09544045
128	0xbd38fa60	-0.04516065
129	0x3b224849	0.0024762324
130	0x3d98b790	0.07456887
131	0xbdf86911	-0.12129415
132	0xbec94ee7	-0.3931801
133	0x3c9c46e0	0.019076765
134	0xbd8b6686	-0.06806664
135	0xbdbc914a	-0.09207399
136	0xbd29f622	-0.041494496
137	0xb86141b7	-5.3705382e-05
138	0x3e045489	0.12922873
139	0xbc47c5a4	-0.012193117
140	0x3d0436f8	0.032278985
141	0xbd7ac4f9	-0.061223004
142	0x3d056504	0.03256704
143	0x3b112600	0.0022147894
144	0xbe4822fa	-0.19544592
145	0xbe3b00a3	-0.18261962
146	0x3d071e50	0.032987893
147	0x3e06a52d	0.13148947
148	0xbd63db5c	-0.05562912
149	0x3e202012	0.15637234
150	0xbd3df439	-0.046375487
151	0xbd89fa5f	-0.067372076
152	0x3c857bbb	0.01629435
153	0x3dd831ce	0.105563745
154	0x3de27c1e	0.1105883
155	0x3d4d6277	0.05014273
156	0xbde1a0bf	-0.11016988
157	0xbdb56e7e	-0.08858965
158	0xbcfe8a78	-0.031071886
159	0xbd1be250	-0.038057625
160	0xbbd35404	-0.0064492244
161	0xbe0bcf34	-0.1365326
162	0x3d344ad0	0.04401666
163	0xbdf0f4e4	-0.11765459
164	0xbdd5f604	-0.104473144
165	0xbe0894a8	-0.13337958
166	0x3de71d16	0.112848446
167	0xbe1b5c9b	-0.15172045
168	0x3d63fdb6	0.05566188
169	0x3b2cf841	0.0026393088
170	0xbc86bc24	-0.016447134
171	0x3d9622ac	0.07330832
172	0xbcf815ec	-0.03028389
173	0x3d97d0f7	0.07412904
174	0x3db3f9a5	0.0878785
175	0xbdfb75e4	-0.12278345
176	0x3d5ee404	0.05441667
177	0x3cdab478	0.026697382
178	0x3cf918a0	0.03040725
179	0x3bb2129c	0.0054343473
180	0x3cc83caf	0.024442999
181	0xbda415bb	-0.08011957
182	0xbcc56a90	-0.024098665
183	0x3e099793	0.13436727
184	0x3db21e4f	0.08697187
185	0xbbae1880	-0.005312979
186	0xbdf720f0	-0.12066829
187	0xbc09af65	-0.008403634
188	0xbdc53b24	-0.09630421
189	0x3ddf3a08	0.108997405
190	0xbdafd4d0	-0.08585513
191	0xbca9c31f	-0.020722924
192	0xbd00901c	-0.031387433
193	0x3cce29f0	0.025166482
194	0x3e02204a	0.1270763
195	0xb919e52f	-0.00014676595
196	0x3d7e81ff	0.062135693
197	0x3de0d15a	0.10977431
198	0x3ddd8632	0.10816611
199	0xbd5923b4	-0.053012565
200	0xbd018e48	-0.03162983
201	0x3d8b9588	0.0681563
202	0xbd1e0fd6	-0.03858932
203	0x3d879fae	0.06622253
204	0xbcfd199c	-0.030896
205	0xbdc47160	-0.09591937
206	0x3d6bc8e0	0.057564616
207	0x3cb19f60	0.021682441
208	0x3d8121a8	0.063052475
209	0x3e0fdf45	0.14050014
210	0x3dc5bd98	0.09655303
211	0x3e094847	0.13406478
212	0x3bf807a0	0.0075692683
213	0xbdf924e9	-0.12165243
214	0xbdcb2f1a	-0.09921093
215	0xbdb3e940	-0.08784723
216	0xbdff3c9f	-0.124627344
217	0xbd912d43	-0.07088711
218	0xbe054ffd	-0.13018794
219	0xbe059be6	-0.13047752
220	0xbdad11ff	-0.08450698
221	0xbe0ec396	-0.13941798
222	0xbdb1c772	-0.08680619
223	0x3d5ce0a8	0.053925186
224	0x3df1914a	0.1179529
225	0xbd2c4f12	-0.042067595
226	0xbd287eb8	-0.041136473
227	0x3d9aa640	0.07551241
228	0xbd8ee53e	-0.06977318
229	0xbd88f26b	-0.066868626
230	0x3db2733e	0.08713387
231	0xbdfc5b1e	-0.12322067
232	0x3c8da880	0.017292261
233	0x3dffdad2	0.124929085
234	0x3cc6abd0	0.024251848
235	0x3d1d86d4	0.03845866
236	0xbda8adb2	-0.08236255
237	0xbaffbd00	-0.0019511282
238	0x3bfecda0	0.0077759773
239	0x3d0e2bb4	0.034709647
240	0x3d6111e4	0.054948702
241	0x3dfbab1a	0.122884944
242	0xbddd133d	-0.10794685
243	0x3b8ae880	0.004239142
244	0xbd90b5cb	-0.07065924
245	0xbde51dd9	-0.111873336
246	0xbc398b30	-0.011324689
247	0xbdfef1a0	-0.1244843
248	0x3dca221a	0.098697856
249	0x3c862c98	0.016378686
250	0xbd9c1954	-0.076220185
251	0x3d975ae6	0.073903844
252	0xbe090eb3	-0.13384514
253	0xbd600edc	-0.05470167
254	0xbce1b3c0	-0.027551532
255	0xbdf61d2e	-0.12017284

bias f4 [128]
0	0xbdd9f140	-0.10641718
1	0xbdcad12a	-0.09903176
2	0x3db495ee	0.08817659
3	0x3d44891b	0.047982316
4	0xbe005350	-0.12531781
5	0xbcede05c	-0.029037647
6	0x3d534bf3	0.051586103
7	0xbe18a1a6	-0.14905414
8	0x3dae8b1e	0.08522628
9	0xbcd7a3a4	-0.026323147
10	0xbcdbd161	-0.026833238
11	0xbd4776c4	-0.048697248
12	0x3cfeeaeb	0.031117877
13	0x3c0c2363	0.008553359
14	0x3e16df8f	0.14733718
15	0x3d66af55	0.056319553
16	0xbd022f08	-0.031783134
17	0xbbad4de0	-0.0052888244
18	0xbc2e680c	-0.010644924
19	0xbd706624	-0.05869116
20	0xbdf82e38	-0.121181905
21	0xbce822ce	-0.028336909
22	0xbd5ca438	-0.05386755
23	0xbe2717ca	-0.16317669
24	0x3d198315	0.037478525
25	0xbdaae893	-0.08345141
26	0x3ded5377	0.11588185
27	0x3d0375c1	0.03209472
28	0x3ccf7a5d	0.025326902
29	0x3d9e126e	0.07718359
30	0x3d9e07e6	0.0771635
31	0x3d954992	0.07289423
32	0x3da3efea	0.08004744
33	0xbd17c058	-0.037048668
34	0xbce57c17	-0.028013272
35	0x3d0e2ec4	0.034712568
36	0xbd9d4bd2	-0.07680477
37	0xbd205b0d	-0.039149333
38	0x3cc829f0	0.02443406
39	0x3d27338b	0.04082064
40	0xbe0c137a	-0.13679305
41	0x3d27e570	0.040990293
42	0xbd869cae	-0.06572853
43	0xbdcc0110	-0.0996114
44	0xbd825d52	-0.06365456
45	0x3cd1245d	0.025530035
46	0x3d645617	0.055746164
47	0xbe2cf048	-0.16888535
48	0x3c51014a	0.012756655
49	0x3e1d4fc5	0.15362461
50	0xbda3a226	-0.07989912
51	0x3c72d462	0.014821144
52	0xbd9b28ee	-0.07576166
53	0x3d4e6409	0.05038837
54	0x3c71a9bd	0.014749941
55	0xbdcbddd1	-0.099544175
56	0xbb7b161b	-0.0038312736
57	0x3e34a7b3	0.17642097
58	0x3b9d8538	0.0048071407
59	0xbdcd9694	-0.10038486
60	0x3c9a749f	0.018854437
61	0x3c421924	0.011846814
62	0x3d89ad5e	0.0672252
63	0xbc270920	-0.010195047
64	0xbd2d4121	-0.04229844
65	0xbdcca18d	-0.09991751
66	0x3d7cad39	0.061688635
67	0xbda39cc8	-0.07988888
68	0xbd94cd7c	-0.072657555
69	0x3e0a6f58	0.13519037
70	0xbdaddd11	-0.08489431
71	0xbcfe06d4	-0.031009115
72	0xbd441adf	-0.04787719
73	0xbdf510ea	-0.11966117
74	0x3d7b77f7	0.061393704
75	0xbd809b5f	-0.06279635
76	0xbdbf00da	-0.09326334
77	0xbd5fc804	-0.05463411
78	0x3da56fac	0.0807794
79	0x3e3f3db8	0.18675888
80	0x3e2548fd	0.16141124
81	0xbbfb9f8b	-0.007678931
82	0xbdf8681d	-0.12129233
83	0x3c2afa20	0.010435611
84	0xbd2ab90d	-0.041680384
85	0x3e2e0aa8	0.16996253
86	0xbd76b3bf	-0.060230013
87	0xbe081289	-0.1328832
88	0x3c8cc463	0.017183488
89	0xbd80ffbb	-0.06298777
90	0x3da5f201	0.08102799
91	0x3ce666c5	0.028125176
92	0x3d55dfe4	0.052215472
93	0x3d5d1cf0	0.053982675
94	0xbdcb0bff	-0.099143974
95	0xbdffda36	-0.12492792
96	0x3e4273ed	0.18989535
97	0x3e27d885	0.1639119
98	0xbd811af3	-0.06303968
99	0x3e1e9f7e	0.15490529
100	0x3d95580d	0.07292185
101	0xbd704474	-0.058659032
102	0xbdb62075	-0.088929094
103	0xbd9a21ad	-0.075259544
104	0x3e0c41dd	0.13697
105	0xbdeba5eb	-0.11506256
106	0xbd6d998a	-0.058007754
107	0x3da2fb94	0.07958141
108	0xbdb3973d	-0.08769081
109	0x3e153721	0.14571811
110	0x3db15431	0.08658636
111	0x3dba07ad	0.09083495
112	0x3c930c80	0.017950296
113	0xbccf63fc	-0.025316231
114	0x3d980b9d	0.0742409
115	0x3c4aa8e2	0.012369366
116	0xbdda1d01	-0.10650063
117	0xbe08f49b	-0.1337456
118	0xbdeb64b2	-0.114938155
119	0xbd154628	-0.03644386
120	0x3c965c57	0.018354578
121	0xbdb793ce	-0.089637384
122	0x3d0da2da	0.034579135
123	0x3e04f4e3	0.12984042
124	0x3d85337d	0.06503961
125	0xbd7c5425	-0.061603684
126	0x3b112812	0.0022149128
127	0xbe0bf4fd	-0.13667674

weight f4 [50, 128]
0	0x3d6b172b	0.05739514
1	0xbd90ab98	-0.07063979
2	0xbb6bb391	-0.0035965184
3	0xbd0a4dad	-0.033765484
4	0xbd961719	-0.07328624
5	0xbd9ce846	-0.0766149
6	0xbd87846b	-0.066170536
7	0xbd710fe1	-0.058853034
8	0x3d70358e	0.058644824
9	0xbc058e68	-0.008151628
10	0xbd8e3437	-0.06943553
11	0xbc168cfb	-0.009188886
12	0xbd11d4f8	-0.035603493
13	0xbc99f3a7	-0.01879294
14	0x3d87cb37	0.06630557
15	0xbdb05386	-0.08609681
16	0xbda98bfc	-0.08278653
17	0x3c4eeb39	0.012629324
18	0x3d4f0fd8	0.05055222
19	0xbdabfb39	-0.08397526
20	0x3ce37c20	0.027769148
21	0x3da7159e	0.0815842
22	0xbc68a890	-0.014200345
23	0xbd76c15f	-0.060243007
24	0x3d168244	0.036745325
25	0x3d2f1a4e	0.042749695
26	0xbb8117b3	-0.0039395927
27	0xbda989b9	-0.08278222
28	0xbbc6d121	-0.0060674106
29	0xbd846fdf	-0.0646665
30	0xbdad87f9	-0.084732
31	0x3d37fb17	0.044917192
32	0x3d516915	0.051125605
33	0x3d1159d8	0.035486072
34	0xbd8fde9c	-0.07024881
35	0x3d860096	0.065430805
36	0x3d6099bc	0.054834113
37	0x3d8a420d	0.067508794
38	0xbbc082b0	-0.005874954
39	0xbc302d90	-0.01075305
40	0xbda2590a	-0.07927139
41	0x3d8594af	0.065225
42	0x3a24c0c0	0.00062848255
43	0xbdb4ffe2	-0.08837868
44	0x3da15740	0.0787797
45	0xbca2bb02	-0.019864563
46	0x3d59bf56	0.053160988
47	0xbcc2c9a5	-0.023777792
48	0xbca79b56	-0.020459812
49	0x3d8e66df	0.06953215
50	0x3d964be1	0.073386915
51	0xbd123db1	-0.035703365
52	0xbb836c24	-0.004010694
53	0x3d50d89d	0.05098783
54	0xbbbd1761	-0.0057706092
55	0xbc426d28	-0.011866845
56	0x3d90f2ca	0.07077558
57	0x3d8cf48d	0.06882582
58	0xbcc217c8	-0.02369298
59	0x3d890e2d	0.06692157
60	0xbc949af8	-0.018140301
61	0xbb3ee53c	-0.0029128334
62	0x3d7c07bd	0.061530817
63	0xbbe0b5e0	-0.0068576187
64	0xbba0391d	-0.004889621
65	0xbce17dc4	-0.02752579
66	0xbda36a22	-0.079792276
67	0x3d8c29bf	0.068439
68	0xbda1d128	-0.079012215
69	0xbda00180	-0.07812786
70	0x3b0fbe67	0.0021933557
71	0xbc7a8fb7	-0.015293053
72	0xbbe6a299	-0.007038426
73	0x3ad3b61f	0.0016152299
74	0x3d9dade9	0.07699186
75	0xbdafc1b5	-0.085818686
76	0xbd7f3719	-0.062308405
77	0x3bf51522	0.007479326
78	0xbdb21b4e	-0.08696614
79	0xbda22a2f	-0.07918202
80	0x3d6e6c45	0.058208723
81	0x3d0c2f38	0.03422472
82	0xbce0996a	-0.027416904
83	0x3cbf1440	0.023325086
84	0x3b9aca91	0.004723855
85	0xbc939fce	-0.018020537
86	0x3d846e46	0.064663455
87	0xb7c5e000	-2.3588538e-05
88	0x3d5bb8a6	0.05364289
89	0xbd9e8396	-0.07739942
90	0xbd39ff2c	-0.045409366
91	0x3c12b071	0.0089532
92	0x3d1905ec	0.037359163
93	0xbd3a3c58	-0.045467705
94	0x3d829785	0.06376556
95	0xbd962d2a	-0.07332833
96	0xbd30758e	-0.04308086
97	0x3d6ad8e5	0.057335753
98	0xbd79255d	-0.060826648
99	0xbdbbf659	-0.091778465
100	0xbd049e01	-0.032377247
101	0xbda61684	-0.08109763
102	0x3c950674	0.018191554
103	0xbc7e9c68	-0.01554022
104	0xbd096371	-0.0335421
105	0x3d285de1	0.041105155
106	0x3ba88200	0.0051424503
107	0xbdb6fc6e	-0.08934866
108	0xbdab895e	-0.0837581
109	0x3d3d6b21	0.046244744
110	0x3cef4e28	0.029212072
111	0x3d21dc5e	0.0395168
112	0xbd99bd88	-0.07506853
113	0xbc8bec48	-0.017080441
114	0x3d86e926	0.06587438
115	0x3d7e007c	0.06201218
116	0x3d4b73e3	0.049671065
117	0x3da80bf9	0.082054086
118	0xbce2e65e	-0.027697738
119	0xbd986d7f	-0.0744276
120	0x3d1f9dfc	0.038969025
121	0x3d66d5de	0.056356303
122	0xbd0fe564	-0.035130873
123	0xbc8e2076	-0.017349463
124	0xbc5dcb6d	-0.01353727
125	0xbdb70037	-0.08935588
126	0xbd3cf1e8	-0.046129137
127	0xbce570d8	-0.02800791
128	0x3d0727a6	0.032996796
129	0xbcd34464	-0.025789447
130	0x3d0dfb6f	0.034663614
131	0x3d984b18	0.07436198
132	0xbc9a5988	-0.01884152
133	0xbcb07e0c	-0.021544479
134	0xbd78cfa9	-0.060744915
135	0xbbdd0a40	-0.0067456067
136	0xbda25ba2	-0.07927634
137	0x3d74b646	0.059744142
138	0x3d9171e2	0.071017995
139	0x3c964cd5	0.018347183
140	0x3da09aff	0.07842063
141	0x3d20f533	0.03929634
142	0x3d5a925e	0.053362243
143	0x3d9c7cd8	0.076409996
144	0xbd6eaefb	-0.058272343
145	0xbc474187	-0.012161619
146	0x3ce533b7	0.027978761
147	0xbcc1d008	-0.023658767
148	0xbd80686c	-0.06269917
149	0xbce35b04	-0.02775336
150	0xbd337846	-0.043815874
151	0xbcecb9c2	-0.02889717
152	0xbd89e680	-0.067334175
153	0xbd029e8f	-0.031889495
154	0x3d3a0809	0.04541782
155	0xbd344f1f	-0.04402077
156	0x3d04cdb4	0.032422736
157	0xbd9f926a	-0.07791598
158	0xbd798c4e	-0.06092482
159	0x3c161870	0.0091611
160	0x3d9cee67	0.07662659
161	0xbda72c9e	-0.08162807
162	0x3d1d963a	0.038473345
163	0x3c279cf8	0.010230295
164	0xbd93e976	-0.072222635
165	0xbd81ca79	-0.06337447
166	0x3d2103f5	0.039310414
167	0xbd25f1af	-0.04051369
168	0x3d7db6ae	0.061941795
169	0xbd704a89	-0.058664832
170	0x3d88bfb9	0.06677193
171	0xbd38b2a9	-0.04509226
172	0x3cfa8cef	0.03058478
173	0x3cadd767	0.021220876
174	0xbd8e0af4	-0.06935683
175	0xbd3a5dfc	-0.045499787
176	0xbc950ade	-0.018193658
177	0xbba21962	-0.0049468735
178	0x3d32ccde	0.043652408
179	0xbd2a3b3a	-0.04156039
180	0x3c551120	0.013004571
181	0xbd59cd3f	-0.053174254
182	0xbd4180c6	-0.04724195
183	0x3d6c41ea	0.057680048
184	0xbcf12354	-0.029435791
185	0xbda952ba	-0.08267732
186	0x3b7351e0	0.0037127659
187	0xbc4e7138	-0.012600236
188	0x3ca30759	0.019900965
189	0xbd38aef8	-0.04508874
190	0xbaba3cbb	-0.0014208773
191	0xbd329bbf	-0.043605562
192	0xbd5acd85	-0.053418655
193	0x3c778c4e	0.015109135
194	0x3cb4fa20	0.022091925
195	0x3c85f474	0.016351916
196	0x3d9c8173	0.07641878
197	0x3b425ccc	0.0029657362
198	0x3bf64af0	0.0075162575
199	0xbc133dfc	-0.008986946
200	0xbdaabe35	-0.0833706
201	0x3d0d9982	0.034570225
202	0x3d826847	0.063675456
203	0x3c0f80b8	0.008758716
204	0xbd8d2d2c	-0.068933815
205	0x3d97d4fb	0.0741367
206	0x3c6ec511	0.0145733515
207	0x3d70733e	0.058703654
208	0x3d07d600	0.03316307
209	0x3c646c88	0.0139418915
210	0xbcd55624	-0.026042052
211	0x3c94a794	0.018146314
212	0x3cbe2abb	0.023213735
213	0xbc2d73d5	-0.010586699
214	0xbd7ca969	-0.061685
215	0xbd3e441c	-0.046451673
216	0xbd9f53eb	-0.07779678
217	0xbd22ff94	-0.03979452
218	0xbc9f8eb6	-0.01947723
219	0x3d8958b0	0.06706369
220	0xbd32c181	-0.04364157
221	0xbdbcd359	-0.09219999
222	0x3d466f9a	0.048446275
223	0x3d9c1367	0.07620888
224	0xbd97e5f9	-0.07416911
225	0xbbc83d4c	-0.006110823
226	0x3cbb8a01	0.022892954
227	0x3d53fc4b	0.051754277
228	0xbcaccfd4	-0.021095194
229	0x3d24e4da	0.040257312
230	0x3d8b158d	0.0679122
231	0x3d53dcc2	0.051724203
232	0x3d1afab6	0.037836753
233	0x3d46c26e	0.048525266
234	0xbda2365a	-0.07920523
235	0x3c5e3ffd	0.013565061
236	0x3d8b98cf	0.06816255
237	0xbd9a21c8	-0.075259745
238	0xbda961b6	-0.0827059
239	0xbda030ba	-0.07821794
240	0x3cde5164	0.02713842
241	0x3da7ff75	0.082030214
242	0xbc5902f3	-0.013245332
243	0xbd2553bf	-0.04036307
244	0x3bab6780	0.005230844
245	0xbd9541a1	-0.07287908
246	0x3c7ab000	0.015300751
247	0xbd6e05a5	-0.05811085
248	0xbd6f9c7a	-0.058498837
249	0xbd840c1e	-0.06447624
250	0xbcf7d08f	-0.030250816
251	0x3d568714	0.052374914
252	0x3c507fd5	0.01272579
253	0x3d668a62	0.056284316
254	0xbdb95804	-0.09049991
255	0xbd91fdfc	-0.07128522

bias f4 [50]
0	0xbd91ecc0	-0.071252346
1	0xbbf9b07a	-0.0076199146
2	0x3c4dc20b	0.0125584705
3	0xbda51a86	-0.080616996
4	0xbd37eb63	-0.044902217
5	0xbd8e330a	-0.06943329
6	0x3be48b32	0.006974601
7	0x3d04e99c	0.03244935
8	0xbda0f867	-0.07859879
9	0xbd8dfcc9	-0.069329806
10	0xbc09af6a	-0.008403638
11	0xbd13b8c9	-0.036064897
12	0xbd8c032a	-0.06836541
13	0xbd0d90c9	-0.034561906
14	0xbd805bc4	-0.06267503
15	0xbc97622d	-0.018479431
16	0xbccbe684	-0.024890192
17	0x3b97d1e0	0.0046331733
18	0xbb8a8cb4	-0.004228199
19	0xbd0ee6d8	-0.03488812
20	0x3db590ae	0.08865486
21	0xbd444067	-0.04791298
22	0x3cc92dba	0.024557937
23	0x3c9ed9fb	0.01939105
24	0xbcbe27ea	-0.023212392
25	0xbd84a87a	-0.06477447
26	0xbdab6118	-0.083681285
27	0x3c7bd321	0.015370161
28	0x3c44b515	0.012006064
29	0x3d08d329	0.033404503
30	0xbd204132	-0.039124675
31	0x3da070f7	0.07834046
32	0x3ddc836c	0.10767254
33	0x3cab3263	0.02089805
34	0xbd2206dc	-0.039557323
35	0xbd3a5e5b	-0.04550014
36	0xbdbac259	-0.091191
37	0x3d1dfa22	0.038568623
38	0xba583997	-0.00082483276
39	0x3c92572d	0.017863834
40	0x3d257069	0.040390406
41	0xbd19bfaf	-0.03753632
42	0x3c9db733	0.019252395
43	0x3d39f389	0.04539827
44	0xbdab08a4	-0.083512574
45	0x3dd586d2	0.104261056
46	0x3d9aa8e7	0.07551747
47	0xbd2bf6aa	-0.041983284
48	0xbd93cde3	-0.07217004
49	0x3d06255e	0.03275048

weight f4 [2, 50]
0	0x3d7c0577	0.06152865
1	0xbd70eb1e	-0.058817975
2	0x3d77da86	0.060511135
3	0x3d2beb84	0.041972652
4	0x3e067c0b	0.13133256
5	0x3d94270c	0.0723401
6	0x3c272ac0	0.0102030635
7	0xbe1bb33e	-0.15205094
8	0x3debb782	0.11509611
9	0x3de80feb	0.11331161
10	0xbcdf1a5b	-0.027234247
11	0x3a814fd8	0.0009865714
12	0xbbb48ac0	-0.0055097044
13	0xb8cc3a60	-9.738351e-05
14	0x3e7c7121	0.2465253
15	0x3c9c97f8	0.019115433
16	0xbde153c2	-0.11002304
17	0x3d3a5f38	0.045500964
18	0xbd9c78f8	-0.076402605
19	0x3cd70105	0.026245603
20	0x3e28641d	0.1644444
21	0xbd5bf10d	-0.05369668
22	0x3da925e5	0.08259181
23	0xbb8b70ea	-0.0042554038
24	0xbd7558f5	-0.05989929
25	0x3df82f12	0.12118353
26	0x3da9c9b5	0.08290426
27	0x3dc257f6	0.094894335
28	0xbdac07f6	-0.08399956
29	0xbdb98b27	-0.09059744
30	0xbdfea728	-0.12434226
31	0x3bd10ccc	0.0063796993
32	0x3e662763	0.22475962
33	0xbde60d40	-0.11232996
34	0x3d4e256e	0.050328664
35	0x3e60eae7	0.21964608
36	0xbd1fe4f3	-0.039036702
37	0xba38b6fa	-0.00070463086
38	0xbd97eaaf	-0.07417809
39	0xbcb72076	-0.022354346
40	0x3d2df2de	0.042467944
41	0x3ca399a8	0.01997073
42	0xbddba9a9	-0.107257195
43	0x3ea0d316	0.31411046
44	0xbc52b311	-0.012860076
45	0xbe0af595	-0.13570245
46	0xbe32eb17	-0.17472492
47	0x3c8c2654	0.01710812
48	0xbdd5290a	-0.10408218
49	0xbd9681ae	-0.07348953
50	0x3cd059f6	0.025433522
51	0x3b64f76d	0.0034937516
52	0xbd6a543e	-0.057209246
53	0x3cb39a18	0.021924064
54	0x3d7cdfe7	0.061736967
55	0xbd5fade2	-0.054609187
56	0xbd1ef221	-0.03880513
57	0x3d37c589	0.04486612
58	0x3d0db164	0.034593
59	0x3d1f8f93	0.038955282
60	0x3dacbbbc	0.08434245
61	0x3aa5d43d	0.0012651753
62	0x3d406eb4	0.046980575
63	0xbda6aa0a	-0.08137901
64	0xbe402f74	-0.18768102
65	0x3dc50878	0.09620756
66	0xbe017ae1	-0.12644531
67	0xbdbe8570	-0.09302795
68	0xbde62d33	-0.1123909
69	0x3dd026ad	0.10163627
70	0xbe09e25e	-0.13465258
71	0x3decefbe	0.11569165
72	0xbd810d2b	-0.0630134
73	0xbcd8bd8f	-0.026457576
74	0x3da36bae	0.07979523
75	0xbe103bad	-0.14085265
76	0xbe057da5	-0.13036211
77	0xbdb0819e	-0.086184725
78	0xbbe1ebd9	-0.0068945703
79	0xbde90c55	-0.11379305
80	0x3cd68160	0.026184738
81	0x3df21deb	0.11822113
82	0xbe342f42	-0.17596152
83	0x3d51bd7c	0.051206097
84	0xbdf46bfc	-0.11934659
85	0xbe626c01	-0.22111513
86	0xbc1b13b1	-0.009465144
87	0x3c93ddbe	0.01805007
88	0xbd262975	-0.04056688
89	0xbd8cc587	-0.06873613
90	0xbd786258	-0.060640663
91	0x3dc7b4c6	0.09751277
92	0x3c056df6	0.0081438925
93	0xbe9c7a19	-0.30561903
94	0xbccba1e4	-0.024857469
95	0x3d4cc205	0.04998972
96	0x3d4e479b	0.050361257
97	0x3dc1e340	0.094671726
98	0x3ddb4c6c	0.10707936
99	0xbca6ce88	-0.020362154

bias f4 [2]
0	0xbc8e6036	-0.017379861
1	0xbdb8e6bc	-0.09028384
